2022-04-14 17:40:22,301 - [line:32] - INFO: Model: UNet3D(
  (encoders): ModuleList(
    (0): Encoder(
      (basic_module): DoubleConv(
        (SingleConv1): SingleConv(
          (batchnorm): BatchNorm3d(1, eps=1e-05, momentum=0.1, affine=True, track_running_stats=True)
          (conv): Conv3d(1, 2, kernel_size=(3, 3, 3), stride=(1, 1, 1), padding=(1, 1, 1), bias=False)
          (ReLU): ReLU(inplace=True)
        )
        (SingleConv2): SingleConv(
          (batchnorm): BatchNorm3d(2, eps=1e-05, momentum=0.1, affine=True, track_running_stats=True)
          (conv): Conv3d(2, 4, kernel_size=(3, 3, 3), stride=(1, 1, 1), padding=(1, 1, 1), bias=False)
          (ReLU): ReLU(inplace=True)
        )
      )
    )
    (1): Encoder(
      (pooling): MaxPool3d(kernel_size=2, stride=2, padding=0, dilation=1, ceil_mode=False)
      (basic_module): DoubleConv(
        (SingleConv1): SingleConv(
          (batchnorm): BatchNorm3d(4, eps=1e-05, momentum=0.1, affine=True, track_running_stats=True)
          (conv): Conv3d(4, 4, kernel_size=(3, 3, 3), stride=(1, 1, 1), padding=(1, 1, 1), bias=False)
          (ReLU): ReLU(inplace=True)
        )
        (SingleConv2): SingleConv(
          (batchnorm): BatchNorm3d(4, eps=1e-05, momentum=0.1, affine=True, track_running_stats=True)
          (conv): Conv3d(4, 8, kernel_size=(3, 3, 3), stride=(1, 1, 1), padding=(1, 1, 1), bias=False)
          (ReLU): ReLU(inplace=True)
        )
      )
    )
    (2): Encoder(
      (pooling): MaxPool3d(kernel_size=2, stride=2, padding=0, dilation=1, ceil_mode=False)
      (basic_module): DoubleConv(
        (SingleConv1): SingleConv(
          (batchnorm): BatchNorm3d(8, eps=1e-05, momentum=0.1, affine=True, track_running_stats=True)
          (conv): Conv3d(8, 8, kernel_size=(3, 3, 3), stride=(1, 1, 1), padding=(1, 1, 1), bias=False)
          (ReLU): ReLU(inplace=True)
        )
        (SingleConv2): SingleConv(
          (batchnorm): BatchNorm3d(8, eps=1e-05, momentum=0.1, affine=True, track_running_stats=True)
          (conv): Conv3d(8, 16, kernel_size=(3, 3, 3), stride=(1, 1, 1), padding=(1, 1, 1), bias=False)
          (ReLU): ReLU(inplace=True)
        )
      )
    )
    (3): Encoder(
      (pooling): MaxPool3d(kernel_size=2, stride=2, padding=0, dilation=1, ceil_mode=False)
      (basic_module): DoubleConv(
        (SingleConv1): SingleConv(
          (batchnorm): BatchNorm3d(16, eps=1e-05, momentum=0.1, affine=True, track_running_stats=True)
          (conv): Conv3d(16, 16, kernel_size=(3, 3, 3), stride=(1, 1, 1), padding=(1, 1, 1), bias=False)
          (ReLU): ReLU(inplace=True)
        )
        (SingleConv2): SingleConv(
          (batchnorm): BatchNorm3d(16, eps=1e-05, momentum=0.1, affine=True, track_running_stats=True)
          (conv): Conv3d(16, 32, kernel_size=(3, 3, 3), stride=(1, 1, 1), padding=(1, 1, 1), bias=False)
          (ReLU): ReLU(inplace=True)
        )
      )
    )
    (4): Encoder(
      (pooling): MaxPool3d(kernel_size=2, stride=2, padding=0, dilation=1, ceil_mode=False)
      (basic_module): DoubleConv(
        (SingleConv1): SingleConv(
          (batchnorm): BatchNorm3d(32, eps=1e-05, momentum=0.1, affine=True, track_running_stats=True)
          (conv): Conv3d(32, 32, kernel_size=(3, 3, 3), stride=(1, 1, 1), padding=(1, 1, 1), bias=False)
          (ReLU): ReLU(inplace=True)
        )
        (SingleConv2): SingleConv(
          (batchnorm): BatchNorm3d(32, eps=1e-05, momentum=0.1, affine=True, track_running_stats=True)
          (conv): Conv3d(32, 64, kernel_size=(3, 3, 3), stride=(1, 1, 1), padding=(1, 1, 1), bias=False)
          (ReLU): ReLU(inplace=True)
        )
      )
    )
  )
  (decoders): ModuleList(
    (0): Decoder(
      (upsampling): InterpolateUpsampling()
      (basic_module): DoubleConv(
        (SingleConv1): SingleConv(
          (batchnorm): BatchNorm3d(96, eps=1e-05, momentum=0.1, affine=True, track_running_stats=True)
          (conv): Conv3d(96, 32, kernel_size=(3, 3, 3), stride=(1, 1, 1), padding=(1, 1, 1), bias=False)
          (ReLU): ReLU(inplace=True)
        )
        (SingleConv2): SingleConv(
          (batchnorm): BatchNorm3d(32, eps=1e-05, momentum=0.1, affine=True, track_running_stats=True)
          (conv): Conv3d(32, 32, kernel_size=(3, 3, 3), stride=(1, 1, 1), padding=(1, 1, 1), bias=False)
          (ReLU): ReLU(inplace=True)
        )
      )
    )
    (1): Decoder(
      (upsampling): InterpolateUpsampling()
      (basic_module): DoubleConv(
        (SingleConv1): SingleConv(
          (batchnorm): BatchNorm3d(48, eps=1e-05, momentum=0.1, affine=True, track_running_stats=True)
          (conv): Conv3d(48, 16, kernel_size=(3, 3, 3), stride=(1, 1, 1), padding=(1, 1, 1), bias=False)
          (ReLU): ReLU(inplace=True)
        )
        (SingleConv2): SingleConv(
          (batchnorm): BatchNorm3d(16, eps=1e-05, momentum=0.1, affine=True, track_running_stats=True)
          (conv): Conv3d(16, 16, kernel_size=(3, 3, 3), stride=(1, 1, 1), padding=(1, 1, 1), bias=False)
          (ReLU): ReLU(inplace=True)
        )
      )
    )
    (2): Decoder(
      (upsampling): InterpolateUpsampling()
      (basic_module): DoubleConv(
        (SingleConv1): SingleConv(
          (batchnorm): BatchNorm3d(24, eps=1e-05, momentum=0.1, affine=True, track_running_stats=True)
          (conv): Conv3d(24, 8, kernel_size=(3, 3, 3), stride=(1, 1, 1), padding=(1, 1, 1), bias=False)
          (ReLU): ReLU(inplace=True)
        )
        (SingleConv2): SingleConv(
          (batchnorm): BatchNorm3d(8, eps=1e-05, momentum=0.1, affine=True, track_running_stats=True)
          (conv): Conv3d(8, 8, kernel_size=(3, 3, 3), stride=(1, 1, 1), padding=(1, 1, 1), bias=False)
          (ReLU): ReLU(inplace=True)
        )
      )
    )
    (3): Decoder(
      (upsampling): InterpolateUpsampling()
      (basic_module): DoubleConv(
        (SingleConv1): SingleConv(
          (batchnorm): BatchNorm3d(12, eps=1e-05, momentum=0.1, affine=True, track_running_stats=True)
          (conv): Conv3d(12, 4, kernel_size=(3, 3, 3), stride=(1, 1, 1), padding=(1, 1, 1), bias=False)
          (ReLU): ReLU(inplace=True)
        )
        (SingleConv2): SingleConv(
          (batchnorm): BatchNorm3d(4, eps=1e-05, momentum=0.1, affine=True, track_running_stats=True)
          (conv): Conv3d(4, 4, kernel_size=(3, 3, 3), stride=(1, 1, 1), padding=(1, 1, 1), bias=False)
          (ReLU): ReLU(inplace=True)
        )
      )
    )
  )
  (final_conv): Conv3d(4, 2, kernel_size=(1, 1, 1), stride=(1, 1, 1))
  (final_activation): Softmax(dim=1)
)
2022-04-14 17:40:22,301 - [line:32] - INFO: optimizer: Adam (
Parameter Group 0
    amsgrad: False
    betas: (0.9, 0.999)
    eps: 1e-08
    initial_lr: 0.001
    lr: 0.001
    weight_decay: 0
)
2022-04-14 17:40:22,301 - [line:32] - INFO: loss: SoftDiceLoss()
2022-04-14 17:40:22,301 - [line:32] - INFO: ####################
…
