2022-04-02 18:32:50,191 - [line:32] - INFO: Model: UNet3D(
  (encoders): ModuleList(
    (0): Encoder(
      (basic_module): DoubleConv(
        (SingleConv1): SingleConv(
          (batchnorm): BatchNorm3d(1, eps=1e-05, momentum=0.1, affine=True, track_running_stats=True)
          (conv): Conv3d(1, 2, kernel_size=(3, 3, 3), stride=(1, 1, 1), padding=(1, 1, 1), bias=False)
          (ReLU): ReLU(inplace=True)
        )
        (SingleConv2): SingleConv(
          (batchnorm): BatchNorm3d(2, eps=1e-05, momentum=0.1, affine=True, track_running_stats=True)
          (conv): Conv3d(2, 4, kernel_size=(3, 3, 3), stride=(1, 1, 1), padding=(1, 1, 1), bias=False)
          (ReLU): ReLU(inplace=True)
        )
      )
    )
    (1): Encoder(
      (pooling): MaxPool3d(kernel_size=2, stride=2, padding=0, dilation=1, ceil_mode=False)
      (basic_module): DoubleConv(
        (SingleConv1): SingleConv(
          (batchnorm): BatchNorm3d(4, eps=1e-05, momentum=0.1, affine=True, track_running_stats=True)
          (conv): Conv3d(4, 4, kernel_size=(3, 3, 3), stride=(1, 1, 1), padding=(1, 1, 1), bias=False)
          (ReLU): ReLU(inplace=True)
        )
        (SingleConv2): SingleConv(
          (batchnorm): BatchNorm3d(4, eps=1e-05, momentum=0.1, affine=True, track_running_stats=True)
          (conv): Conv3d(4, 8, kernel_size=(3, 3, 3), stride=(1, 1, 1), padding=(1, 1, 1), bias=False)
          (ReLU): ReLU(inplace=True)
        )
      )
    )
  )
  (decoders): ModuleList(
    (0): Decoder(
      (upsampling): InterpolateUpsampling()
      (basic_module): DoubleConv(
        (SingleConv1): SingleConv(
          (batchnorm): BatchNorm3d(12, eps=1e-05, momentum=0.1, affine=True, track_running_stats=True)
          (conv): Conv3d(12, 4, kernel_size=(3, 3, 3), stride=(1, 1, 1), padding=(1, 1, 1), bias=False)
          (ReLU): ReLU(inplace=True)
        )
        (SingleConv2): SingleConv(
          (batchnorm): BatchNorm3d(4, eps=1e-05, momentum=0.1, affine=True, track_running_stats=True)
          (conv): Conv3d(4, 4, kernel_size=(3, 3, 3), stride=(1, 1, 1), padding=(1, 1, 1), bias=False)
          (ReLU): ReLU(inplace=True)
        )
      )
    )
  )
  (final_conv): Conv3d(4, 1, kernel_size=(1, 1, 1), stride=(1, 1, 1))
  (final_activation): Sigmoid()
)
2022-04-02 18:32:50,191 - [line:32] - INFO: optimizer: Adam (
Parameter Group 0
    amsgrad: False
    betas: (0.9, 0.999)
    eps: 1e-08
    initial_lr: 0.001
    lr: 0.001
    weight_decay: 0
)
2022-04-02 18:32:50,191 - [line:32] - INFO: loss: BCEWithLogitsLoss()
2022-04-02 18:32:50,191 - [line:32] - INFO: ####################
…
